…
[05-10 20:35:25] (idai/github/VAR/train.py, line  71)=> [dataloader] gbs=768, lbs=48, iters_train=1669, types(tr, va)=('DatasetFolder', 'DatasetFolder')
[05-10 20:35:25] (github/VAR/models/var.py, line  98)=> 
[constructor]  ==== flash_if_available=True (0/16), fused_if_available=True (fusing_add_ln=0/16, fusing_mlp=0/16) ==== 
    [VAR config ] embed_dim=1024, num_heads=16, depth=16, mlp_ratio=4.0
    [drop ratios ] drop_rate=0.0, attn_drop_rate=0.0, drop_path_rate=0.0666667 (tensor([… ))

[05-10 20:35:26] (github/VAR/models/var.py, line 239)=> [init_weights] VAR with init_std=0.0180422
[05-10 20:35:27] (idai/github/VAR/train.py, line 105)=> [INIT] VAR model = VAR(
  drop_path_rate=0.0666667
  (word_embed): Linear(in_features=32, out_features=1024, bias=True)
  (class_emb): Embedding(1001, 1024)
  (lvl_embed): Embedding(10, 1024)
  (shared_ada_lin): Identity()
  (blocks): ModuleList(
    (0): AdaLNSelfAttn(
      shared_aln=False
      (drop_path): Identity()
      (attn): SelfAttention(
        using_flash=False, using_xform=False, attn_l2_norm=True
        (mat_qkv): Linear(in_features=1024, out_features=3072, bias=False)
        (proj): Linear(in_features=1024, out_features=1024, bias=True)
        (proj_drop): Identity()
      )
      (ffn): FFN(
        fused_mlp_func=False
        (fc1): Linear(in_features=1024, out_features=4096, bias=True)
        (act): GELU(approximate='tanh')
        (fc2): Linear(in_features=4096, out_features=1024, bias=True)
        (drop): Identity()
      )
      (ln_wo_grad): LayerNorm((1024,), eps=1e-06, elementwise_affine=False)
      (ada_lin): Sequential(
        (0): SiLU()
        (1): Linear(in_features=1024, out_features=6144, bias=True)
      )
    )
    (1-15): 15 x AdaLNSelfAttn(
      shared_aln=False
      (drop_path): DropPath((drop_prob=...))
      (attn): SelfAttention(
        using_flash=False, using_xform=False, attn_l2_norm=True
        (mat_qkv): Linear(in_features=1024, out_features=3072, bias=False)
        (proj): Linear(in_features=1024, out_features=1024, bias=True)
        (proj_drop): Identity()
      )
      (ffn): FFN(
        fused_mlp_func=False
        (fc1): Linear(in_features=1024, out_features=4096, bias=True)
        (act): GELU(approximate='tanh')
        (fc2): Linear(in_features=4096, out_features=1024, bias=True)
        (drop): Identity()
      )
      (ln_wo_grad): LayerNorm((1024,), eps=1e-06, elementwise_affine=False)
      (ada_lin): Sequential(
        (0): SiLU()
        (1): Linear(in_features=1024, out_features=6144, bias=True)
      )
    )
  )
  (head_nm): AdaLNBeforeHead(
    (ln_wo_grad): LayerNorm((1024,), eps=1e-06, elementwise_affine=False)
    (ada_lin): Sequential(
      (0): SiLU()
      (1): Linear(in_features=1024, out_features=2048, bias=True)
    )
  )
  (head): Linear(in_features=1024, out_features=4096, bias=True)
)


[05-10 20:35:27] (idai/github/VAR/train.py, line 107)=> [INIT][#para] VAE=108.95, VAE.enc=44.11, VAE.dec=64.65, VAE.quant=0.17
[05-10 20:35:27] (idai/github/VAR/train.py, line 108)=> [INIT][#para] VAR=310.28


[05-10 20:35:27] (/VAR/utils/lr_control.py, line  99)=> [get_param_groups] param_groups = 
{ 'D': { 'lr_sc': 1.0,
         'params': "('word_embed.weight, class_emb.weight, blocks.0.attn.mat_qkv.weight, blocks.0.attn.proj.weight, blocks.0.ffn.fc1.weight, blocks.0.ffn.fc2.weight, blocks.0.ada_lin.1.weight, '\n"
…
[05-10 20:36:40] (/VAR/utils/lr_control.py, line 104)=> [get_param_groups][rank0] type(model).__name__='VAR' count=202, numel=310283520
[05-10 20:36:43] (/VAR/utils/lr_control.py, line 105)=> 
[05-10 20:36:43] (idai/github/VAR/train.py, line 123)=> [INIT] optim=functools.partial(<class 'torch.optim.adamw.AdamW'>, betas=(0.9, 0.95), fused=True), opt_kw={'lr': 0.00030000000000000003, 'weight_decay': 0}

[05-10 20:37:01] (github/VAR/utils/misc.py, line 314)=> [Ep]: [   0/200]  [   0/1669]  eta: 7:52:45  tlr: 1.5e-06  tnm: 0.08  Lm: 8.318 (8.318)  Lt: 8.318 (8.318)  Accm: 0.02 (0.02)  Acct: 0.02 (0.02)  time: 16.9952  data: 0.3623
tention(
        using_flash=False, using_xform=False, attn_l2_norm=True
        (mat_qkv): Linear(in_features=1024, out_features=3072, bias=False)
        (proj): Linear(in_features=1024, out_features=1024, bias=True)
        (proj_drop): Identity()
      )
      (ffn): FFN(
        fused_mlp_func=False
        (fc1): Linear(in_features=1024, out_features=4096, bias=True)
        (act): GELU(approximate='tanh')
        (fc2): Linear(in_features=4096, out_features=1024, bias=True)
        (drop): Identity()
      )
      (ln_wo_grad): LayerNorm((1024,), eps=1e-06, elementwise_affine=False)
      (ada_lin): Sequential(
        (0): SiLU()
        (1): Linear(in_features=1024, out_features=6144, bias=True)
      )
    )
    (1-15): 15 x AdaLNSelfAttn(
      shared_aln=False
      (drop_path): DropPath((drop_prob=...))
      (attn): SelfAttention(
        using_flash=False, using_xform=False, attn_l2_norm=True
        (mat_qkv): Linear(in_features=1024, out_features=3072, bias=False)
        (proj): Linear(in_features=1024, out_features=1024, bias=True)
        (proj_drop): Identity()
      )
      (ffn): FFN(
        fused_mlp_func=False
        (fc1): Linear(in_features=1024, out_features=4096, bias=True)
        (act): GELU(approximate='tanh')
        (fc2): Linear(in_features=4096, out_features=1024, bias=True)
        (drop): Identity()
      )
      (ln_wo_grad): LayerNorm((1024,), eps=1e-06, elementwise_affine=False)
      (ada_lin): Sequential(
        (0): SiLU()
        (1): Linear(in_features=1024, out_features=6144, bias=True)
      )
    )
  )
  (head_nm): AdaLNBeforeHead(
    (ln_wo_grad): LayerNorm((1024,), eps=1e-06, elementwise_affine=False)
    (ada_lin): Sequential(
      (0): SiLU()
      (1): Linear(in_features=1024, out_features=2048, bias=True)
    )
  )
  (head): Linear(in_features=1024, out_features=4096, bias=True)
)


[05-10 20:36:40] (idai/github/VAR/train.py, line 107)=> [INIT][#para] VAE=108.95, VAE.enc=44.11, VAE.dec=64.65, VAE.quant=0.17
[05-10 20:36:40] (idai/github/VAR/train.py, line 108)=> [INIT][#para] VAR=310.28


[05-10 20:36:40] (/VAR/utils/lr_control.py, line  99)=> [get_param_groups] param_groups = 
{ 'D': { 'lr_sc': 1.0,
         'params': "('word_embed.weight, class_emb.weight, blocks.0.attn.mat_qkv.weight, blocks.0.attn.proj.weight, blocks.0.ffn.fc1.weight, blocks.0.ffn.fc2.weight, blocks.0.ada_lin.1.weight, '\n"
…
[05-16 07:57:52] (idai/github/VAR/train.py, line  72)=> [dataloader] gbs=768, lbs=48, iters_train=1669, types(tr, va)=('DatasetFolder', 'DatasetFolder')
[05-16 07:57:52] (github/VAR/models/var.py, line  98)=> 
[constructor]  ==== flash_if_available=True (0/20), fused_if_available=True (fusing_add_ln=0/20, fusing_mlp=0/20) ==== 
    [VAR config ] embed_dim=1280, num_heads=20, depth=20, mlp_ratio=4.0
    [drop ratios ] drop_rate=0.0, attn_drop_rate=0.0, drop_path_rate=0.0833333 (tensor([… ))

[05-16 07:57:53] (github/VAR/models/var.py, line 239)=> [init_weights] VAR with init_std=0.0161374
[05-16 07:57:54] (idai/github/VAR/train.py, line 106)=> [INIT] VAR model = VAR(
  drop_path_rate=0.0833333
  (word_embed): Linear(in_features=32, out_features=1280, bias=True)
  (class_emb): Embedding(1001, 1280)
  (lvl_embed): Embedding(10, 1280)
  (shared_ada_lin): Identity()
  (blocks): ModuleList(
    (0): AdaLNSelfAttn(
      shared_aln=False
      (drop_path): Identity()
      (attn): SelfAttention(
        using_flash=False, using_xform=False, attn_l2_norm=True
        (mat_qkv): Linear(in_features=1280, out_features=3840, bias=False)
        (proj): Linear(in_features=1280, out_features=1280, bias=True)
        (proj_drop): Identity()
      )
      (ffn): FFN(
        fused_mlp_func=False
        (fc1): Linear(in_features=1280, out_features=5120, bias=True)
        (act): GELU(approximate='tanh')
        (fc2): Linear(in_features=5120, out_features=1280, bias=True)
        (drop): Identity()
      )
      (ln_wo_grad): LayerNorm((1280,), eps=1e-06, elementwise_affine=False)
      (ada_lin): Sequential(
        (0): SiLU()
        (1): Linear(in_features=1280, out_features=7680, bias=True)
      )
    )
    (1-19): 19 x AdaLNSelfAttn(
      shared_aln=False
      (drop_path): DropPath((drop_prob=...))
      (attn): SelfAttention(
        using_flash=False, using_xform=False, attn_l2_norm=True
        (mat_qkv): Linear(in_features=1280, out_features=3840, bias=False)
        (proj): Linear(in_features=1280, out_features=1280, bias=True)
        (proj_drop): Identity()
      )
      (ffn): FFN(
        fused_mlp_func=False
        (fc1): Linear(in_features=1280, out_features=5120, bias=True)
        (act): GELU(approximate='tanh')
        (fc2): Linear(in_features=5120, out_features=1280, bias=True)
        (drop): Identity()
      )
      (ln_wo_grad): LayerNorm((1280,), eps=1e-06, elementwise_affine=False)
      (ada_lin): Sequential(
        (0): SiLU()
        (1): Linear(in_features=1280, out_features=7680, bias=True)
      )
    )
  )
  (head_nm): AdaLNBeforeHead(
    (ln_wo_grad): LayerNorm((1280,), eps=1e-06, elementwise_affine=False)
    (ada_lin): Sequential(
      (0): SiLU()
      (1): Linear(in_features=1280, out_features=2560, bias=True)
    )
  )
  (head): Linear(in_features=1280, out_features=4096, bias=True)
)


[05-16 07:57:54] (idai/github/VAR/train.py, line 108)=> [INIT][#para] VAE=108.95, VAE.enc=44.11, VAE.dec=64.65, VAE.quant=0.17
[05-16 07:57:54] (idai/github/VAR/train.py, line 109)=> [INIT][#para] VAR=600.92


[05-16 07:57:54] (/VAR/utils/lr_control.py, line  99)=> [get_param_groups] param_groups = 
{ 'D': { 'lr_sc': 1.0,
         'params': "('word_embed.weight, class_emb.weight, blocks.0.attn.mat_qkv.weight, blocks.0.attn.proj.weight, blocks.0.ffn.fc1.weight, blocks.0.ffn.fc2.weight, blocks.0.ada_lin.1.weight, '\n"
…
